…
W0000 00:00:1767441006.281896   28507 gpu_device.cc:2342] Cannot dlopen some GPU libraries. Please make sure the missing libraries mentioned above are installed properly if you would like to use GPU. Follow the guide at https://www.tensorflow.org/install/gpu for how to download and setup the required libraries for your platform.
Skipping registering GPU devices...

======================================================================
ENCODER ARCHITECTURE
======================================================================
Model: "encoder"
┏━━━━━━━━━━━━━━━━━━━━━━━━━━━━━━━━━━━━━━┳━━━━━━━━━━━━━━━━━━━━━━━━━━━━━┳━━━━━━━━━━━━━━━━━┓
┃ Layer (type)                         ┃ Output Shape                ┃         Param # ┃
┡━━━━━━━━━━━━━━━━━━━━━━━━━━━━━━━━━━━━━━╇━━━━━━━━━━━━━━━━━━━━━━━━━━━━━╇━━━━━━━━━━━━━━━━━┩
│ encoder_input (InputLayer)           │ (None, 1250, 3)             │               0 │
├──────────────────────────────────────┼─────────────────────────────┼─────────────────┤
│ encoder_conv1 (Conv1D)               │ (None, 1250, 32)            │             512 │
├──────────────────────────────────────┼─────────────────────────────┼─────────────────┤
│ encoder_bn1 (BatchNormalization)     │ (None, 1250, 32)            │             128 │
├──────────────────────────────────────┼─────────────────────────────┼─────────────────┤
│ encoder_relu1 (ReLU)                 │ (None, 1250, 32)            │               0 │
├──────────────────────────────────────┼─────────────────────────────┼─────────────────┤
│ encoder_pool1 (MaxPooling1D)         │ (None, 625, 32)             │               0 │
├──────────────────────────────────────┼─────────────────────────────┼─────────────────┤
│ encoder_conv2 (Conv1D)               │ (None, 625, 64)             │          10,304 │
├──────────────────────────────────────┼─────────────────────────────┼─────────────────┤
│ encoder_bn2 (BatchNormalization)     │ (None, 625, 64)             │             256 │
├──────────────────────────────────────┼─────────────────────────────┼─────────────────┤
│ encoder_relu2 (ReLU)                 │ (None, 625, 64)             │               0 │
├──────────────────────────────────────┼─────────────────────────────┼─────────────────┤
│ encoder_pool2 (MaxPooling1D)         │ (None, 312, 64)             │               0 │
├──────────────────────────────────────┼─────────────────────────────┼─────────────────┤
│ encoder_conv3 (Conv1D)               │ (None, 312, 128)            │          41,088 │
├──────────────────────────────────────┼─────────────────────────────┼─────────────────┤
│ encoder_bn3 (BatchNormalization)     │ (None, 312, 128)            │             512 │
├──────────────────────────────────────┼─────────────────────────────┼─────────────────┤
│ encoder_relu3 (ReLU)                 │ (None, 312, 128)            │               0 │
├──────────────────────────────────────┼─────────────────────────────┼─────────────────┤
│ encoder_pool3 (MaxPooling1D)         │ (None, 156, 128)            │               0 │
├──────────────────────────────────────┼─────────────────────────────┼─────────────────┤
│ encoder_lstm1 (LSTM)                 │ (None, 156, 128)            │         131,584 │
├──────────────────────────────────────┼─────────────────────────────┼─────────────────┤
│ encoder_lstm_bn1                     │ (None, 156, 128)            │             512 │
│ (BatchNormalization)                 │                             │                 │
├──────────────────────────────────────┼─────────────────────────────┼─────────────────┤
│ encoder_lstm2 (LSTM)                 │ (None, 156, 128)            │         131,584 │
├──────────────────────────────────────┼─────────────────────────────┼─────────────────┤
│ encoder_lstm_bn2                     │ (None, 156, 128)            │             512 │
│ (BatchNormalization)                 │                             │                 │
├──────────────────────────────────────┼─────────────────────────────┼─────────────────┤
│ encoder_lstm3 (LSTM)                 │ (None, 64)                  │          49,408 │
├──────────────────────────────────────┼─────────────────────────────┼─────────────────┤
│ encoder_lstm_bn3                     │ (None, 64)                  │             256 │
│ (BatchNormalization)                 │                             │                 │
├──────────────────────────────────────┼─────────────────────────────┼─────────────────┤
│ bottleneck (Dense)                   │ (None, 125)                 │           8,125 │
└──────────────────────────────────────┴─────────────────────────────┴─────────────────┘
 Total params: 374,781 (1.43 MB)
 Trainable params: 373,693 (1.43 MB)
 Non-trainable params: 1,088 (4.25 KB)

======================================================================
DECODER ARCHITECTURE
======================================================================
Model: "decoder"
┏━━━━━━━━━━━━━━━━━━━━━━━━━━━━━━━━━━━━━━┳━━━━━━━━━━━━━━━━━━━━━━━━━━━━━┳━━━━━━━━━━━━━━━━━┓
┃ Layer (type)                         ┃ Output Shape                ┃         Param # ┃
┡━━━━━━━━━━━━━━━━━━━━━━━━━━━━━━━━━━━━━━╇━━━━━━━━━━━━━━━━━━━━━━━━━━━━━╇━━━━━━━━━━━━━━━━━┩
│ decoder_input (InputLayer)           │ (None, 125)                 │               0 │
├──────────────────────────────────────┼─────────────────────────────┼─────────────────┤
│ decoder_dense (Dense)                │ (None, 9984)                │       1,257,984 │
├──────────────────────────────────────┼─────────────────────────────┼─────────────────┤
│ decoder_reshape (Reshape)            │ (None, 156, 64)             │               0 │
├──────────────────────────────────────┼─────────────────────────────┼─────────────────┤
│ decoder_lstm1 (LSTM)                 │ (None, 156, 64)             │          33,024 │
├──────────────────────────────────────┼─────────────────────────────┼─────────────────┤
│ decoder_lstm_bn1                     │ (None, 156, 64)             │             256 │
│ (BatchNormalization)                 │                             │                 │
├──────────────────────────────────────┼─────────────────────────────┼─────────────────┤
│ decoder_lstm2 (LSTM)                 │ (None, 156, 128)            │          98,816 │
├──────────────────────────────────────┼─────────────────────────────┼─────────────────┤
│ decoder_lstm_bn2                     │ (None, 156, 128)            │             512 │
│ (BatchNormalization)                 │                             │                 │
├──────────────────────────────────────┼─────────────────────────────┼─────────────────┤
│ decoder_lstm3 (LSTM)                 │ (None, 156, 128)            │         131,584 │
├──────────────────────────────────────┼─────────────────────────────┼─────────────────┤
│ decoder_lstm_bn3                     │ (None, 156, 128)            │             512 │
│ (BatchNormalization)                 │                             │                 │
├──────────────────────────────────────┼─────────────────────────────┼─────────────────┤
│ decoder_upsample1 (UpSampling1D)     │ (None, 312, 128)            │               0 │
├──────────────────────────────────────┼─────────────────────────────┼─────────────────┤
│ decoder_conv1 (Conv1DTranspose)      │ (None, 312, 128)            │          82,048 │
├──────────────────────────────────────┼─────────────────────────────┼─────────────────┤
│ decoder_bn1 (BatchNormalization)     │ (None, 312, 128)            │             512 │
├──────────────────────────────────────┼─────────────────────────────┼─────────────────┤
│ decoder_relu1 (ReLU)                 │ (None, 312, 128)            │               0 │
├──────────────────────────────────────┼─────────────────────────────┼─────────────────┤
│ decoder_upsample2 (UpSampling1D)     │ (None, 624, 128)            │               0 │
├──────────────────────────────────────┼─────────────────────────────┼─────────────────┤
│ decoder_conv2 (Conv1DTranspose)      │ (None, 624, 64)             │          41,024 │
├──────────────────────────────────────┼─────────────────────────────┼─────────────────┤
│ decoder_bn2 (BatchNormalization)     │ (None, 624, 64)             │             256 │
├──────────────────────────────────────┼─────────────────────────────┼─────────────────┤
│ decoder_relu2 (ReLU)                 │ (None, 624, 64)             │               0 │
├──────────────────────────────────────┼─────────────────────────────┼─────────────────┤
│ decoder_upsample3 (UpSampling1D)     │ (None, 1248, 64)            │               0 │
├──────────────────────────────────────┼─────────────────────────────┼─────────────────┤
│ decoder_conv3 (Conv1DTranspose)      │ (None, 1248, 32)            │          10,272 │
├──────────────────────────────────────┼─────────────────────────────┼─────────────────┤
│ decoder_bn3 (BatchNormalization)     │ (None, 1248, 32)            │             128 │
├──────────────────────────────────────┼─────────────────────────────┼─────────────────┤
│ decoder_relu3 (ReLU)                 │ (None, 1248, 32)            │               0 │
├──────────────────────────────────────┼─────────────────────────────┼─────────────────┤
│ decoder_padding (ZeroPadding1D)      │ (None, 1250, 32)            │               0 │
├──────────────────────────────────────┼─────────────────────────────┼─────────────────┤
│ decoder_output (Conv1D)              │ (None, 1250, 3)             │             291 │
└──────────────────────────────────────┴─────────────────────────────┴─────────────────┘
 Total params: 1,657,219 (6.32 MB)
 Trainable params: 1,656,131 (6.32 MB)
 Non-trainable params: 1,088 (4.25 KB)

======================================================================
COMPLETE AUTOENCODER
======================================================================
Model: "vcg_autoencoder"
┏━━━━━━━━━━━━━━━━━━━━━━━━━━━━━━━━━━━━━━┳━━━━━━━━━━━━━━━━━━━━━━━━━━━━━┳━━━━━━━━━━━━━━━━━┓
┃ Layer (type)                         ┃ Output Shape                ┃         Param # ┃
┡━━━━━━━━━━━━━━━━━━━━━━━━━━━━━━━━━━━━━━╇━━━━━━━━━━━━━━━━━━━━━━━━━━━━━╇━━━━━━━━━━━━━━━━━┩
│ autoencoder_input (InputLayer)       │ (None, 1250, 3)             │               0 │
├──────────────────────────────────────┼─────────────────────────────┼─────────────────┤
│ encoder (Functional)                 │ (None, 125)                 │         374,781 │
├──────────────────────────────────────┼─────────────────────────────┼─────────────────┤
│ decoder (Functional)                 │ (None, 1250, 3)             │       1,657,219 │
└──────────────────────────────────────┴─────────────────────────────┴─────────────────┘
 Total params: 2,032,000 (7.75 MB)
 Trainable params: 2,029,824 (7.74 MB)
 Non-trainable params: 2,176 (8.50 KB)

Model compiled with:
  - Optimizer: Adam (lr=0.001)
  - Loss: MSE
  - Bottleneck size: 125
  - Compression ratio: ~30:1

[STEP 5] Training model...

Starting training...
  - Training samples: 7446
…
